matrix_factorization_model.pt (torch, 333066 bytes, 2 tensors)

user_factors.weight f4 [610, 8]
1.0803459 1.6736141 1.022776 1.4577227 1.0025723 0.96569157 0.8512244 1.7883251
2.1560125 0.31956458 1.6686527 0.2725364 1.395118 1.477553 0.82173866 0.114564046
1.8760493 -0.55089295 -1.2824394 0.6216429 0.8836265 0.48271054 -1.6732289 3.1389
1.1824411 1.5776396 -1.1075366 0.28308052 2.6675372 1.7981434 1.3123417 0.12881804
0.5850287 1.0569671 0.34242743 1.9211859 1.105868 0.5106285 1.7451557 0.610167
2.00595 1.8171277 1.9018457 0.62228715 1.1002765 -0.81005454 0.7137247 1.1766919
1.2772717 1.9371186 -0.8993294 0.84392995 2.8920364 1.5622896 -0.4155008 1.0864947
0.37401962 0.082996026 1.7956568 1.6102709 1.0886859 0.9798595 0.71443146 1.4687755
0.5684692 0.8965566 1.1982269 1.2880082 0.69241905 2.5689142 -0.18402685 1.0308633
1.8614416 0.6285984 2.4801455 -0.39941108 1.5217512 -0.22505201 -1.7844007 2.0228112
1.1859403 0.304765 1.8251121 0.21758911 0.20605883 1.9533172 1.5145313 1.4504447
2.3936033 0.09507009 1.2705331 0.6114215 1.8378991 0.82965314 1.7153986 1.2667177
0.44905096 1.2442112 1.2688147 1.0761063 0.53403825 2.2249982 -0.1440319 2.2530193
1.2574502 -0.2704143 1.6238139 1.6198107 1.5283393 -0.034228392 0.7229836 1.582548
1.4363408 1.2863466 0.18581432 -0.971616 -0.7892852 2.6769056 1.4806768 2.1106896
0.62670946 0.6000959 0.72587246 1.3121531 1.063022 1.084164 0.6613281 1.3243681
0.9810492 1.3448119 0.6769963 0.8337396 1.3638772 1.5550956 0.6618017 1.1440185
0.9017991 0.8964875 1.0292227 1.151624 1.0035763 1.5302414 0.6593216 1.0662161
-0.14538777 1.3540384 1.9080482 0.9784565 1.4346936 1.2748258 -0.42530653 0.1275524
0.05453341 2.0932963 0.7197022 1.6282489 2.1103957 0.7425132 1.0027441 0.3793377
1.9861284 1.4541068 0.7195908 -0.774977 0.97277284 0.17601332 0.7425969 1.8129823
-2.2312813 1.2053202 -0.4122762 1.0910414 3.49963 0.39243296 1.4109265 0.8582118
0.5454381 0.86855906 0.26283625 0.6721405 1.3291668 1.1119041 1.2138374 1.4233248
0.8037077 0.79934925 1.2065524 0.44537938 0.8092685 1.3283976 0.972885 1.56643
1.4127878 1.5174395 1.0268164 0.7185179 1.012698 1.2845366 1.5654279 1.2702035
0.89011526 1.0697042 0.7076114 1.0345283 1.1828731 1.0569904 1.1310532 0.52322257
1.310922 1.8485183 2.3961582 0.5206969 0.0007841035 0.19887199 -0.17856763 2.0635614
0.40050244 1.1287541 0.6978216 -0.53295803 0.7458458 1.737621 1.0226163 1.4106041
0.616783 0.29564375 1.6720622 0.8998019 0.90957046 1.5502534 0.8840968 1.9288721
2.163922 1.7763382 1.0186883 1.1176119 1.1062189 0.52135116 1.1544083 0.88074994
2.1037169 1.7619431 0.23575096 0.9711552 1.9880921 -0.000864602 1.7171607 0.21506555
0.6821348 0.84173584 1.2383642 1.2472955 1.9316399 1.1213171 1.3073372 0.002065736
00000000: c648 8a3f fd38 d63f 53ea 823f a896 ba3f
00000010: 4a54 803f 9037 773f d8e9 593f d6e7 e43f
00000020: 1cfc 0940 f89d a33e 6996 d53f e489 8b3e
00000030: 3a93 b23f 7520 bd3f 775d 523f 8ea0 ea3d
00000040: 6222 f03f 5207 0dbf f926 a4bf fd23 1f3f
00000050: 5935 623f d625 f73e 5d2c d6bf bde3 4840
00000060: 3b5a 973f 18f0 c93f c2c3 8dbf eeef 903e
00000070: eeb8 2a40 9029 e63f d0fa a73f e0e8 033e
00000080: 71c4 153f b34a 873f a652 af3e 6be9 f53f
00000090: 158d 8d3f 8db8 023f 4361 df3f e833 1c3f
000000a0: 7c61 0040 a497 e83f ae6f f33f 364e 1f3f
000000b0: dcd5 8c3f bc5f 4fbf a9b6 363f d79d 963f
000000c0: a47d a33f 81f3 f73f 743a 66bf cb0b 583f
000000d0: 2017 3940 1bf9 c73f 85bc d4be 4212 8b3f
000000e0: 807f bf3e d2f9 a93d 15d8 e53f 5b1d ce3f
000000f0: 0f5a 8b3f 12d8 7a3f fbe4 363f d600 bc3f
00000100: 3387 113f bc84 653f 805f 993f 74dd a43f
00000110: 6042 313f 1769 2440 8971 3cbe 54f3 833f
00000120: b843 ee3f d3eb 203f b4ba 1e40 9c7f ccbe
00000130: bec8 c23f 0974 66be 3e67 e4bf bd75 0140
00000140: e4cc 973f 280a 9c3e 469d e93f aecf 5e3e
00000150: 1601 533e 4c06 fa3f 29dc c13f 2ca8 b93f
00000160: cc30 1940 1bb4 c23d d4a0 a23f 1f86 1c3f
00000170: 4740 eb3f 2664 543f 2e92 db3f ce23 a23f
00000180: 02ea e53e 5042 9f3f 8568 a23f dabd 893f
00000190: bbb6 083f 5f66 0e40 197d 13be 7831 1040
000001a0: 21f4 a03f be73 8abe 22d9 cf3f f555 cf3f
000001b0: 9fa0 c33f 1233 0cbd 7415 393f ef90 ca3f
000001c0: 04da b73f 01a7 a43f 1c46 3e3e d4bb 78bf
000001d0: 980e 4abf 6c52 2b40 d186 bd3f 8a15 0740
000001e0: 0870 203f e39f 193f c7d2 393f a2f4 a73f
000001f0: 1b11 883f e3c5 8a3f cc4c 293f e584 a93f
00000200: 0a26 7b3f cc22 ac3f a14f 2d3f f56f 553f
00000210: 8793 ae3f 5f0d c73f d66b 293f 336f 923f
00000220: 4edc 663f 3480 653f 92bd 833f 6a68 933f
00000230: 3075 803f f3de c33f 4dc9 283f c579 883f
00000240: 88e0 14be 2151 ad3f ec3a f43f 207c 7a3f
00000250: 0aa4 b73f 7e2d a33f c7c1 d9be 199d 023e
00000260: 6d5e 5f3d 91f8 0540 673e 383f 766a d03f
00000270: b910 0740 5815 3e3f eb59 803f 8d38 c23e
00000280: 7539 fe3f 2c20 ba3f 1a37 383f e564 46bf
00000290: a407 793f d63c 343e d51a 3e3f ce0f e83f
000002a0: 50cd 0ec0 ef47 9a3f de15 d3be 3fa7 8b3f
000002b0: f0f9 5f40 f9ec c83e 3d99 b43f c5b3 5b3f
000002c0: d5a1 0b3f e359 5e3f 7992 863e 6611 2c3f
000002d0: 2322 aa3f e052 8e3f 065f 9b3f 822f b63f
000002e0: cabf 4d3f 27a2 4c3f 4f70 9a3f c408 e43e
000002f0: 382c 4f3f ef08 aa3f fe0e 793f c780 c83f
00000300: 3bd6 b43f 753b c23f b86e 833f caf0 373f
00000310: 17a0 813f b26b a43f f15f c83f 0796 a23f
00000320: 98de 633f 11ec 883f 0526 353f 6c6b 843f
00000330: 6368 973f 764b 873f 5ac6 903f eaf1 053f
00000340: 4bcc a73f 3f9c ec3f a85a 1940 644c 053f
00000350: 4c8c 4d3a 19a5 4b3e 6fda 36be 6411 0440
00000360: a80e cd3e 047b 903f 70a4 323f f06f 08bf
00000370: c0ef 3e3f 5d6a de3f 17e5 823f ad8e b43f
00000380: 7ee5 1d3f 9e5e 973e 2206 d63f 6b59 663f
00000390: 9cd9 683f b46e c63f 2b54 623f 48e5 f63f
000003a0: b37d 0a40 0d5f e33f 6164 823f e80d 8f3f
000003b0: 9598 8d3f 4577 053f a7c3 933f d478 613f
000003c0: 4ca3 0640 5a87 e13f b368 713e a19d 783f
000003d0: cd79 fe3f 75a6 62ba eccb db3f 253a 5c3e
000003e0: 63a0 2e3f 007c 573f b882 9e3f 61a7 9f3f
000003f0: fa3f f73f 5287 8f3f d356 a73f 4d61 073b

item_factors.weight f4 [9742, 8]
0.2501705 0.79390836 0.5955985 0.64867026 0.5780385 0.14677209 0.32707286 0.5201443
0.09345947 0.3548215 0.4574017 0.16860245 0.48042136 0.25424537 0.35443488 0.9808725
0.4876794 0.3771101 0.58666956 0.52557194 0.22976296 0.6770887 0.7306672 0.27974758
0.25208113 0.29210857 0.50826037 0.7312622 0.49025264 0.6196716 0.46630326 0.587943
0.14260054 0.5981315 0.48043066 0.7018092 0.429277 0.6503494 0.6899134 0.44632408
0.6811021 0.33279514 -0.071045324 0.5147326 0.45821464 0.46966898 0.37247166 0.7513049
0.14805469 0.23682548 0.5156857 0.7492946 0.03181628 1.1057193 -0.2693724 0.7383391
0.35927576 0.38568738 0.5400742 0.04650321 0.43972138 0.83867276 0.6742375 0.55871296
0.47034833 0.12861499 0.5374028 0.48054695 0.12910949 0.46429077 0.9768145 0.466794
0.35101697 0.03767087 0.17782804 0.70506245 0.6829629 0.51856554 0.22184338 0.543701
0.34558153 0.51964366 0.21212539 0.4725192 0.7605003 0.5686412 0.04741598 0.7081894
0.60873795 1.0977634 -0.5612792 0.23865715 0.21738982 0.2669539 0.57279277 0.628164
0.42599264 0.27351484 0.35004562 0.5389184 0.3278594 0.67624694 0.7021949 0.5156803
0.36371365 0.8585811 0.26057127 0.084542714 0.24426726 0.69314444 -0.033830754 0.5108863
-0.21895061 0.5642066 0.31387568 0.7534062 0.37561786 0.48520133 0.8934531 0.27766132
0.12019575 0.99271786 0.45662415 0.3075619 0.6507407 0.745411 0.66280055 0.21133372
0.15135683 0.5122773 0.4010217 0.8700606 0.23500739 0.86633974 0.616149 0.42036432
0.56874186 0.41944462 0.63655496 0.15703163 0.45034 0.55884576 0.18965255 0.24374606
0.69106853 0.8144116 0.6035898 -0.0014152568 0.3585246 0.15128209 0.35948566 0.52294934
0.6157148 0.35526255 0.62817526 0.24271576 0.12854199 0.39189008 0.7179418 0.3833099
0.517424 0.667096 0.4933245 0.45489207 0.33713278 0.415961 0.57420063 0.6152082
0.45538977 0.90173197 0.07379005 -0.22226614 0.5626984 0.43938863 0.8980052 0.42359838
0.27143928 0.72711563 0.25250453 0.12926982 0.5902567 0.25970134 0.25318992 0.7405221
0.31700844 0.22702058 0.21760295 1.1061093 0.52856797 0.55463296 0.4062464 -0.4725867
0.21341324 0.6093574 0.79601413 0.9102185 0.3824875 0.65824586 0.2747426 0.04489631
0.38909402 0.7248092 0.5439138 0.13104723 0.62485546 0.58080536 0.6700144 0.21554789
0.4446105 0.66512996 0.60059655 0.095857486 0.62400895 0.5148565 0.37282482 0.31374192
0.27064246 0.86239535 0.51222765 0.18819682 0.3882832 0.21166354 0.36323047 0.61713636
0.18420212 0.558328 0.72766787 0.6375926 0.4075985 0.68649834 0.79772 0.08379722
0.17450602 0.6033146 0.6552343 0.2007841 0.47996482 0.24674939 0.7608733 0.20415387
0.6278665 0.46444005 0.26893973 0.19602111 0.44152725 0.46513385 0.12324642 0.5284751
0.47832704 0.64811814 0.6991147 0.81039816 0.2457884 0.19661926 0.115666896 0.49781194
00000000: 5916 803e 943d 4b3f 2579 183f 410f 263f
00000010: 55fa 133f 6c4b 163e 1876 a73e 2d28 053f
00000020: ae67 bf3d 2aab b53e 8e30 ea3e 1fa6 2c3e
00000030: caf9 f53e 732c 823e 7d78 b53e 761a 7b3f
00000040: 1db1 f93e 9314 c13e fa2f 163f e28b 063f
00000050: fb46 6b3e af55 2d3f 010d 3b3f 133b 8f3e
00000060: c710 813e 418f 953e 5a1d 023f 0034 3b3f
00000070: 6502 fb3e cca2 1e3f 4dbf ee3e 6f83 163f
00000080: e005 123e 251f 193f 02fb f53e c5a9 333f
00000090: 32ca db3e 4c7d 263f 2a9e 303f 9784 e43e
000000a0: b55c 2e3f 2064 aa3e 3680 91bd 84c5 033f
000000b0: 1c9b ea3e 7478 f03e 9bb4 be3e 8555 403f
000000c0: a69b 173e 6182 723e fa03 043f c5d1 3f3f
000000d0: ca51 023d 3688 8d3f 2eeb 89be cb03 3d3f
000000e0: fef2 b73e d178 c53e 4e42 0a3f 267a 3e3d
000000f0: 2923 e13e 42b3 563f d49a 2c3f d007 0f3f
00000100: 7fd1 f03e a6b3 033e 3b93 093f 400a f63e
00000110: 4735 043e 85b7 ed3e 8410 7a3f a0ff ee3e
00000120: 7fb8 b33e c54c 1a3d 8e18 363e f97e 343f
00000130: a8d6 2e3f b6c0 043f e92a 633e fd2f 0b3f
00000140: 10f0 b03e 5e07 053f 6637 593e 09ee f13e
00000150: 26b0 423f 7892 113f 4237 423d e74b 353f
00000160: 40d6 1b3f 8383 8c3f feaf 0fbf 8a62 743e
00000170: 709b 5e3e 2eae 883e 8ca2 123f 5bcf 203f
00000180: b51b da3e 230a 8c3e 2e39 b33e 8ef6 093f
00000190: 30dd a73e 851e 2d3f 0cc3 333f a003 043f
000001a0: ad38 ba3e f9cb 5b3f 9969 853e bb24 ad3d
000001b0: 3221 7a3e ea71 313f 1e92 0abd 72c9 023f
000001c0: 9734 60be d86f 103f 50b4 a03e 3bdf 403f
000001d0: fc50 c03e 4f6c f83e 58b9 643f a029 8e3e
000001e0: 3029 f63d c222 7e3f a4ca e93e c178 9d3e
000001f0: f196 263f 41d3 3e3f 4cad 293f de67 583e
00000200: 49fd 1a3e 9b24 033f b752 cd3e 4bbc 5e3f
00000210: c7a5 703e 71c8 5d3f f1bb 1d3f fe39 d73e
00000220: 1199 113f 72c1 d63e 44f5 223f e6cc 203e
00000230: f792 e63e 8410 0f3f 4734 423e 9198 793e
00000240: dee9 303f 477d 503f dc84 1a3f 2380 b9ba
00000250: 8990 b73e b1e9 1a3e 810e b83e 02e0 053f
00000260: 7c9f 1d3f f9e4 b53e 18d0 203f 7b8a 783e
00000270: 83a0 033e d1a5 c83e 09cb 373f 3241 c43e
00000280: e675 043f cec6 2a3f 0795 fc3e 9de7 e83e
00000290: ab9c ac3e d7f8 d43e d0fe 123f 497e 1d3f
000002a0: d928 e93e e8d7 663f 3d1f 973d bc99 63be
000002b0: 010d 103f 8cf7 e03e abe3 653f e3e1 d83e
000002c0: 17fa 8a3e 4024 3a3f 4648 813e 4f5f 043e
000002d0: 101b 173f 93f7 843e 1ca2 813e db92 3d3f
000002e0: ee4e a23e 1578 683e 4fd3 5e3e fd94 8d3f
000002f0: 3b50 073f 6dfc 0d3f 87ff cf3e e2f6 f1be
00000300: 0089 5a3e d9fe 1b3f 95c7 4b3f 1404 693f
00000310: 67d5 c33e cd82 283f 10ab 8c3e 31e5 373d
00000320: 5537 c73e 198d 393f ef3d 0b3f 3f31 063e
00000330: 87f6 1f3f a9af 143f 1086 2b3f 96b8 5c3e
00000340: fda3 e33e f545 2a3f b2c0 193f ee50 c43d
00000350: 0dbf 1f3f a3cd 033f e5e2 be3e c8a2 a03e
00000360: a691 8a3e f1c5 5c3f 5a21 033f abb6 403e
00000370: 0ecd c63e 54be 583e 58f9 b93e a6fc 1d3f
00000380: 7b9f 3c3e 95ee 0e3f 7148 3a3f 4539 233f
00000390: c0b0 d03e 5bbe 2f3f 6137 4c3f e09d ab3d
000003a0: b5b1 323e d372 1a3f 6fbd 273f 599a 4d3e
000003b0: f3bd f53e dfab 7c3e 98c8 423f b60d 513e
000003c0: dcbb 203f 16cb ed3e 78b2 893e c2b9 483e
000003d0: dc0f e23e 0626 ee3e 9e68 fc3d 254a 073f
000003e0: 48e7 f43e 12eb 253f 2ef9 323f 4176 4f3f
000003f0: f4af 7b3e 8f56 493e c4e2 ec3d 35e1 fe3e
